Neural Network Tools for STM32AI v1.6.0 (STM.ai v7.2.0-RC5)
Created date          : 2022-09-29 22:36:03
Parameters            : generate --name network -m C:/Users/Asus/Desktop/IOT/tinyml_IEEE/ei_dsp_algorithm/ei-ecg_contest_final-nn-classifier-tensorflow-lite-float32-model.lite --type tflite --compression low --verbosity 1 --workspace C:\Users\Asus\AppData\Local\Temp\mxAI_workspace329756885271008952577217609982886 --output C:\Users\Asus\.stm32cubemx\network_output --allocate-inputs --allocate-outputs

Exec/report summary (generate)
------------------------------------------------------------------------------------------------------------------------
model file            : C:\Users\Asus\Desktop\IOT\tinyml_IEEE\ei_dsp_algorithm\ei-ecg_contest_final-nn-classifier-tensorflow-lite-float32-model.lite
type                  : tflite
c_name                : network
compression           : low
allocator strategy    : ['allocate-inputs', 'allocate-outputs']
workspace dir         : C:\Users\Asus\AppData\Local\Temp\mxAI_workspace329756885271008952577217609982886
output dir            : C:\Users\Asus\.stm32cubemx\network_output
model_name            : eiecg_contest_finalnnclassifiertensorflowlitefloat32model
model_hash            : 3a7d3c432575b54c868d5efa002a9d10
input 1/1             : 'serving_default_x0'
                        67 items, 268 B, ai_float, float, (1,1,1,67), domain:activations/**default**
output 1/1            : 'nl_4'
                        2 items, 8 B, ai_float, float, (1,1,1,2), domain:activations/**default**
params #              : 12,912 items (50.44 KiB)
macc                  : 13,112
weights (ro)          : 16,620 B (16.23 KiB) (1 segment) / -35,028(-67.8%) vs float model
activations (rw)      : 668 B (668 B) (1 segment) *
ram (total)           : 668 B (668 B) = 668 + 0 + 0

(*) input/output buffers can be used from the activations buffer

Model name - eiecg_contest_finalnnclassifiertensorflowlitefloat32model ['serving_default_x0'] ['nl_4']
------------------------------------------------------------------------------------------------------------------------------------------------------------------------------
id   layer (type,original)                     oshape        param/size     macc    connected to         |   c_size             c_macc            c_type                     
------------------------------------------------------------------------------------------------------------------------------------------------------------------------------
0    serving_default_x0 (Input, )              [b:1,c:67]                                                |   +8,124(+100.0%)    +6,900(+100.0%)   dense_wc8of32/nl_of32[0, 1]
     dense_0 (Dense, FULLY_CONNECTED)          [b:1,c:100]   6,800/27,200   6,800   serving_default_x0   |   -27,200(-100.0%)   -6,800(-100.0%)  
     nl_0_nl (Nonlinearity, FULLY_CONNECTED)   [b:1,c:100]                  100     dense_0              |                      -100(-100.0%)    
------------------------------------------------------------------------------------------------------------------------------------------------------------------------------
1    dense_1 (Dense, FULLY_CONNECTED)          [b:1,c:50]    5,050/20,200   5,050   nl_0_nl              |   -13,976(-69.2%)    +50(+1.0%)        dense_wc8of32/nl_of32[2, 3]
     nl_1_nl (Nonlinearity, FULLY_CONNECTED)   [b:1,c:50]                   50      dense_1              |                      -50(-100.0%)     
------------------------------------------------------------------------------------------------------------------------------------------------------------------------------
2    dense_2 (Dense, FULLY_CONNECTED)          [b:1,c:20]    1,020/4,080    1,020   nl_1_nl              |   -1,976(-48.4%)     +20(+2.0%)        dense_wc8of32/nl_of32[4, 5]
     nl_2_nl (Nonlinearity, FULLY_CONNECTED)   [b:1,c:20]                   20      dense_2              |                      -20(-100.0%)     
------------------------------------------------------------------------------------------------------------------------------------------------------------------------------
3    dense_3 (Dense, FULLY_CONNECTED)          [b:1,c:2]     42/168         42      nl_2_nl              |                                        dense_of32[6]              
------------------------------------------------------------------------------------------------------------------------------------------------------------------------------
4    nl_4 (Nonlinearity, SOFTMAX)              [b:1,c:2]                    30      dense_3              |                                        nl_of32[o][7]              
------------------------------------------------------------------------------------------------------------------------------------------------------------------------------
model/c-model: macc=13,112/13,112  weights=51,648/16,620 -35,028(-67.8%) activations=--/668 io=--/0



Generated C-graph summary
------------------------------------------------------------------------------------------------------------------------
model name            : eiecg_contest_finalnnclassifiertensorflowlitefloat32model
c-name                : network
c-node #              : 8
c-array #             : 17
activations size      : 668 (1 segments)
weights size          : 16620 (1 segments)
macc                  : 13112
inputs                : ['serving_default_x0_output']
outputs               : ['nl_4_output']

C-Arrays (17)
-----------------------------------------------------------------------------------------------------------
c_id   name (*_array)              item/size   domain/mem-pool           c-type        fmt         comment
-----------------------------------------------------------------------------------------------------------
0      serving_default_x0_output   67/268      activations/**default**   float         float       /input 
1      dense_0_output              100/400     activations/**default**   float         float              
2      nl_0_nl_output              100/400     activations/**default**   float         float              
3      dense_1_output              50/200      activations/**default**   float         float              
4      nl_1_nl_output              50/200      activations/**default**   float         float              
5      dense_2_output              20/80       activations/**default**   float         float              
6      nl_2_nl_output              20/80       activations/**default**   float         float              
7      dense_3_output              2/8         activations/**default**   float         float              
8      nl_4_output                 2/8         activations/**default**   float         float       /output
9      dense_0_weights             6700/7724   weights/weights           const float   c8 (LUT8)          
10     dense_0_bias                100/400     weights/weights           const float   float              
11     dense_1_weights             5000/6024   weights/weights           const float   c8 (LUT8)          
12     dense_1_bias                50/200      weights/weights           const float   float              
13     dense_2_weights             1000/2024   weights/weights           const float   c8 (LUT8)          
14     dense_2_bias                20/80       weights/weights           const float   float              
15     dense_3_weights             40/160      weights/weights           const float   float              
16     dense_3_bias                2/8         weights/weights           const float   float              
-----------------------------------------------------------------------------------------------------------

C-Layers (8)
---------------------------------------------------------------------------------------------------------
c_id   name (*_layer)   id   layer_type   macc   rom    tensors                        shape (array id) 
---------------------------------------------------------------------------------------------------------
0      dense_0          0    dense        6800   8124   I: serving_default_x0_output   (1,1,1,67) (0)   
                                                        W: dense_0_weights             (67,1,1,100) (9) 
                                                        W: dense_0_bias                (1,1,1,100) (10) 
                                                        O: dense_0_output              (1,1,1,100) (1)  
---------------------------------------------------------------------------------------------------------
1      nl_0_nl          0    nl           100    0      I: dense_0_output              (1,1,1,100) (1)  
                                                        O: nl_0_nl_output              (1,1,1,100) (2)  
---------------------------------------------------------------------------------------------------------
2      dense_1          1    dense        5050   6224   I: nl_0_nl_output              (1,1,1,100) (2)  
                                                        W: dense_1_weights             (100,1,1,50) (11)
                                                        W: dense_1_bias                (1,1,1,50) (12)  
                                                        O: dense_1_output              (1,1,1,50) (3)   
---------------------------------------------------------------------------------------------------------
3      nl_1_nl          1    nl           50     0      I: dense_1_output              (1,1,1,50) (3)   
                                                        O: nl_1_nl_output              (1,1,1,50) (4)   
---------------------------------------------------------------------------------------------------------
4      dense_2          2    dense        1020   2104   I: nl_1_nl_output              (1,1,1,50) (4)   
                                                        W: dense_2_weights             (50,1,1,20) (13) 
                                                        W: dense_2_bias                (1,1,1,20) (14)  
                                                        O: dense_2_output              (1,1,1,20) (5)   
---------------------------------------------------------------------------------------------------------
5      nl_2_nl          2    nl           20     0      I: dense_2_output              (1,1,1,20) (5)   
                                                        O: nl_2_nl_output              (1,1,1,20) (6)   
---------------------------------------------------------------------------------------------------------
6      dense_3          3    dense        42     168    I: nl_2_nl_output              (1,1,1,20) (6)   
                                                        W: dense_3_weights             (20,1,1,2) (15)  
                                                        W: dense_3_bias                (1,1,1,2) (16)   
                                                        O: dense_3_output              (1,1,1,2) (7)    
---------------------------------------------------------------------------------------------------------
7      nl_4             4    nl           30     0      I: dense_3_output              (1,1,1,2) (7)    
                                                        O: nl_4_output                 (1,1,1,2) (8)    
---------------------------------------------------------------------------------------------------------



Number of operations per c-layer
------------------------------------------------------------------------------------------
c_id    m_id   name (type)       #op (type)                       #param (sparsity)      
------------------------------------------------------------------------------------------
0       0      dense_0 (dense)             6,800 (smul_f32_c8)             6,800 (0.0029)
1       0      nl_0_nl (nl)                  100 (op_f32_f32)                            
2       1      dense_1 (dense)             5,050 (smul_f32_c8)             5,050 (0.0002)
3       1      nl_1_nl (nl)                   50 (op_f32_f32)                            
4       2      dense_2 (dense)             1,020 (smul_f32_c8)             1,020 (0.0010)
5       2      nl_2_nl (nl)                   20 (op_f32_f32)                            
6       3      dense_3 (dense)                42 (smul_f32_f32)               42 (0.0000)
7       4      nl_4 (nl)                      30 (op_f32_f32)                            
------------------------------------------------------------------------------------------
total                                     13,112                          12,912 (0.0017)

  Number of operation types
  ---------------------------------------------
  smul_f32_c8               12,870       98.2%
  op_f32_f32                   200        1.5%
  smul_f32_f32                  42        0.3%

Complexity report (model)
---------------------------------------------------------------------------------------
m_id   name                 c_macc                    c_rom                     c_id  
---------------------------------------------------------------------------------------
0      serving_default_x0   ||||||||||||||||  52.6%   ||||||||||||||||  48.9%   [0, 1]
1      dense_1              ||||||||||||      38.9%   ||||||||||||      37.4%   [2, 3]
2      dense_2              |||                7.9%   ||||              12.7%   [4, 5]
3      dense_3              |                  0.3%   |                  1.0%   [6]   
4      nl_4                 |                  0.2%   |                  0.0%   [7]   
---------------------------------------------------------------------------------------
macc=13,112 weights=16,620 act=668 ram_io=0

Generated files (7)
-------------------------------------------------------------------------
C:\Users\Asus\.stm32cubemx\network_output\network_config.h
C:\Users\Asus\.stm32cubemx\network_output\network.h
C:\Users\Asus\.stm32cubemx\network_output\network.c
C:\Users\Asus\.stm32cubemx\network_output\network_data_params.h
C:\Users\Asus\.stm32cubemx\network_output\network_data_params.c
C:\Users\Asus\.stm32cubemx\network_output\network_data.h
C:\Users\Asus\.stm32cubemx\network_output\network_data.c
